…
ocks.6.mlp.fc2.bias', 'decoder_blocks.7.norm1.weight', 'decoder_blocks.7.norm1.bias', 'decoder_blocks.7.attn.qkv.weight', 'decoder_blocks.7.attn.qkv.bias', 'decoder_blocks.7.attn.proj.weight', 'decoder_blocks.7.attn.proj.bias', 'decoder_blocks.7.norm2.weight', 'decoder_blocks.7.norm2.bias', 'decoder_blocks.7.mlp.fc1.weight', 'decoder_blocks.7.mlp.fc1.bias', 'decoder_blocks.7.mlp.fc2.weight', 'decoder_blocks.7.mlp.fc2.bias', 'decoder_norm.weight', 'decoder_norm.bias', 'decoder_pred.weight', 'decoder_pred.bias'])
[05:22:51.095520] Model = VisionTransformer(
  (patch_embed): PatchEmbed(
    (proj): Conv2d(3, 768, kernel_size=(16, 16), stride=(16, 16))
  )
  (pos_drop): Dropout(p=0.0, inplace=False)
  (blocks): ModuleList(
    (0-11): 12 x Block(
      (norm1): LayerNorm((768,), eps=1e-06, elementwise_affine=True)
      (attn): Attention(
        (qkv): Linear(in_features=768, out_features=2304, bias=True)
        (attn_drop): Dropout(p=0.0, inplace=False)
        (proj): Linear(in_features=768, out_features=768, bias=True)
        (proj_drop): Dropout(p=0.0, inplace=False)
      )
      (drop_path): Identity()
      (norm2): LayerNorm((768,), eps=1e-06, elementwise_affine=True)
      (mlp): Mlp(
        (fc1): Linear(in_features=768, out_features=3072, bias=True)
        (act): GELU(approximate='none')
        (fc2): Linear(in_features=3072, out_features=768, bias=True)
        (drop): Dropout(p=0.0, inplace=False)
      )
    )
  )
  (head): Sequential(
    (0): BatchNorm1d(768, eps=1e-06, momentum=0.1, affine=False, track_running_stats=True)
    (1): Linear(in_features=768, out_features=10, bias=True)
  )
  (fc_norm): LayerNorm((768,), eps=1e-06, elementwise_affine=True)
)
[05:22:51.095907] number of params (M): 0.01
[05:22:51.096108] base lr: 1.00e-01
[05:22:51.096395] actual lr: 2.50e-02
[05:22:51.096591] accumulate grad iterations: 1
[05:22:51.096771] effective batch size: 64
[05:22:51.098023] LARS (
Parameter Group 0
    lr: 0.025
    momentum: 0.9
    trust_coefficient: 0.001
    weight_decay: 0
)
[05:22:51.098400] criterion = CrossEntropyLoss()
…
