…
[14:47:53.625713] ⚠️ 警告: 未找到 /home/ytia0661@acfr.usyd.edu.au/PycharmProjects/Sam2/sam2/imagenette/mask/masks_applied/n03888257/n03888257_9864_mask_applied.png 对应的 mask！
[14:47:53.627084] ⚠️ 警告: 未找到 /home/ytia0661@acfr.usyd.edu.au/PycharmProjects/Sam2/sam2/imagenette/mask/masks_applied/n03888257/n03888257_9983_mask_applied.png 对应的 mask！
[14:47:53.627693] ✅ 加载 8621 张图片和 8621 张 mask
[14:47:53.628193] 📌 训练数据集大小: 8621
[14:47:53.628774] Sampler_train = <torch.utils.data.distributed.DistributedSampler object at 0x72d2451c7510>
[14:47:57.098005] Model = MaskedAutoencoderViT(
  (patch_embed): PatchEmbed(
    (proj): Conv2d(3, 1024, kernel_size=(16, 16), stride=(16, 16))
  )
  (blocks): ModuleList(
    (0-23): 24 x Block(
      (norm1): LayerNorm((1024,), eps=1e-06, elementwise_affine=True)
      (attn): Attention(
        (qkv): Linear(in_features=1024, out_features=3072, bias=True)
        (attn_drop): Dropout(p=0.0, inplace=False)
        (proj): Linear(in_features=1024, out_features=1024, bias=True)
        (proj_drop): Dropout(p=0.0, inplace=False)
      )
      (drop_path): Identity()
      (norm2): LayerNorm((1024,), eps=1e-06, elementwise_affine=True)
      (mlp): Mlp(
        (fc1): Linear(in_features=1024, out_features=4096, bias=True)
        (act): GELU(approximate='none')
        (fc2): Linear(in_features=4096, out_features=1024, bias=True)
        (drop): Dropout(p=0.0, inplace=False)
      )
    )
  )
  (norm): LayerNorm((1024,), eps=1e-06, elementwise_affine=True)
  (decoder_embed): Linear(in_features=1024, out_features=512, bias=True)
  (decoder_blocks): ModuleList(
    (0-7): 8 x Block(
      (norm1): LayerNorm((512,), eps=1e-06, elementwise_affine=True)
      (attn): Attention(
        (qkv): Linear(in_features=512, out_features=1536, bias=True)
        (attn_drop): Dropout(p=0.0, inplace=False)
        (proj): Linear(in_features=512, out_features=512, bias=True)
        (proj_drop): Dropout(p=0.0, inplace=False)
      )
      (drop_path): Identity()
      (norm2): LayerNorm((512,), eps=1e-06, elementwise_affine=True)
      (mlp): Mlp(
        (fc1): Linear(in_features=512, out_features=2048, bias=True)
        (act): GELU(approximate='none')
        (fc2): Linear(in_features=2048, out_features=512, bias=True)
        (drop): Dropout(p=0.0, inplace=False)
      )
    )
  )
  (decoder_norm): LayerNorm((512,), eps=1e-06, elementwise_affine=True)
  (decoder_pred): Linear(in_features=512, out_features=768, bias=True)
)
[14:47:57.098345] base lr: 1.00e-03
[14:47:57.098439] actual lr: 1.00e-03
[14:47:57.098549] accumulate grad iterations: 1
[14:47:57.098652] effective batch size: 256
[14:47:57.111901] AdamW (
Parameter Group 0
    amsgrad: False
    betas: (0.9, 0.95)
    capturable: False
    differentiable: False
    eps: 1e-08
    foreach: None
    fused: None
    lr: 0.001
…
